…
====Testing====
baby
The number of users: 19445
Average actions of users: 1.1150424273592183
The number of items: 5549
Average actions of items: 3.907370697422959
The number of inters: 21682
The sparsity of the dataset: 99.97990552482683%
Thu 25 Sep 2025 10:52:58 INFO 

=================================


Thu 25 Sep 2025 10:52:58 INFO =========1/2: Parameters:['reg_weight', 'weight_decay', 'decay_weight', 'alpha_item_co', 'clu_lambda', 'cli_lambda', 'gpert_lambda', 'lambda_spec', 'seed']=(0.001, 0.0001, 0.9, 0.2, 0.0001, 1e-05, 0.0001, 0.1, 999)=======
Thu 25 Sep 2025 10:52:59 INFO DuGRec(
  (mod_item_proj): Linear(in_features=192, out_features=64, bias=False)
  (id_item_proj): Identity()
  (image_embedding): Embedding(7050, 4096)
  (v_MLP): Linear(in_features=4096, out_features=256, bias=True)
  (v_MLP_1): Linear(in_features=256, out_features=64, bias=False)
  (text_embedding): Embedding(7050, 384)
  (t_MLP): Linear(in_features=384, out_features=256, bias=True)
  (t_MLP_1): Linear(in_features=256, out_features=64, bias=False)
  (s_MLP): Linear(in_features=4480, out_features=256, bias=True)
  (s_MLP_1): Linear(in_features=256, out_features=64, bias=False)
  (u_proj_v): Linear(in_features=64, out_features=64, bias=False)
  (u_proj_t): Linear(in_features=64, out_features=64, bias=False)
  (u_proj_s): Linear(in_features=64, out_features=64, bias=False)
  (i_proj_v): Linear(in_features=64, out_features=64, bias=False)
  (i_proj_t): Linear(in_features=64, out_features=64, bias=False)
  (i_proj_s): Linear(in_features=64, out_features=64, bias=False)
)
Trainable parameters: 37697984
Thu 25 Sep 2025 10:53:01 INFO epoch 0 training [time: 2.22s, train loss: 26.0051]
Thu 25 Sep 2025 10:53:04 INFO epoch 0 evaluating [time: 1.13s, valid_score: 0.054300]
Thu 25 Sep 2025 10:53:04 INFO valid result: 
recall@10: 0.0343    recall@20: 0.0543    ndcg@10: 0.0186    ndcg@20: 0.0237    
Thu 25 Sep 2025 10:53:04 INFO test result: 
…
