…
clothing
The number of users: 39387
Average actions of users: 1.0457511361616778
The number of items: 16803
Average actions of items: 2.451288460393977
The number of inters: 41189
The sparsity of the dataset: 99.99377640221293%
Thu 25 Sep 2025 18:56:23 INFO 

=================================


Thu 25 Sep 2025 18:56:23 INFO =========1/1: Parameters:['reg_weight', 'weight_decay', 'decay_weight', 'alpha_item_co', 'clu_lambda', 'cli_lambda', 'gpert_lambda', 'lambda_spec', 'seed']=(0.001, 0.0001, 0.99, 0.2, 0.0001, 1e-05, 0.1, 0.1, 999)=======
Thu 25 Sep 2025 18:56:25 INFO DuGRec(
  (mod_item_proj): Linear(in_features=192, out_features=64, bias=False)
  (id_item_proj): Identity()
  (image_embedding): Embedding(23033, 4096)
  (v_MLP): Linear(in_features=4096, out_features=256, bias=True)
  (v_MLP_1): Linear(in_features=256, out_features=64, bias=False)
  (text_embedding): Embedding(23033, 384)
  (t_MLP): Linear(in_features=384, out_features=256, bias=True)
  (t_MLP_1): Linear(in_features=256, out_features=64, bias=False)
  (s_MLP): Linear(in_features=4480, out_features=256, bias=True)
  (s_MLP_1): Linear(in_features=256, out_features=64, bias=False)
  (u_proj_v): Linear(in_features=64, out_features=64, bias=False)
  (u_proj_t): Linear(in_features=64, out_features=64, bias=False)
  (u_proj_s): Linear(in_features=64, out_features=64, bias=False)
  (i_proj_v): Linear(in_features=64, out_features=64, bias=False)
  (i_proj_t): Linear(in_features=64, out_features=64, bias=False)
  (i_proj_s): Linear(in_features=64, out_features=64, bias=False)
)
Trainable parameters: 113130688
Thu 25 Sep 2025 18:56:31 INFO epoch 0 training [time: 5.62s, train loss: 114.8987]
Thu 25 Sep 2025 18:56:36 INFO epoch 0 evaluating [time: 2.26s, valid_score: 0.058900]
Thu 25 Sep 2025 18:56:36 INFO valid result: 
recall@10: 0.0392    recall@20: 0.0589    ndcg@10: 0.0211    ndcg@20: 0.0261    
Thu 25 Sep 2025 18:56:36 INFO test result: 
…
