…
The number of users: 192403
Average actions of users: 1.161369625213744
The number of items: 48794
Average actions of items: 4.57947698487519
The number of inters: 223451
The sparsity of the dataset: 99.99761985156943%
Fri 20 Feb 2026 19:05:18 INFO 

=================================


Fri 20 Feb 2026 19:05:18 INFO =========1/12: Parameters:['reg_weight', 'weight_decay', 'decay_weight', 'alpha_item_co', 'clu_lambda', 'cli_lambda', 'gpert_lambda', 'lambda_spec', 'cui_gamma', 'seed']=(0.001, 0.0001, 0.95, 0.2, 0.0001, 0.0001, 0.0001, 0.1, 0.1, 999)=======
Fri 20 Feb 2026 19:05:26 INFO DuGRec(
  (mod_item_proj): Linear(in_features=192, out_features=64, bias=False)
  (id_item_proj): Identity()
  (image_embedding): Embedding(63001, 4096)
  (v_MLP): Linear(in_features=4096, out_features=256, bias=True)
  (v_MLP_1): Linear(in_features=256, out_features=64, bias=False)
  (text_embedding): Embedding(63001, 384)
  (t_MLP): Linear(in_features=384, out_features=256, bias=True)
  (t_MLP_1): Linear(in_features=256, out_features=64, bias=False)
  (s_MLP): Linear(in_features=4480, out_features=256, bias=True)
  (s_MLP_1): Linear(in_features=256, out_features=64, bias=False)
  (u_proj_v): Linear(in_features=64, out_features=64, bias=False)
  (u_proj_t): Linear(in_features=64, out_features=64, bias=False)
  (u_proj_s): Linear(in_features=64, out_features=64, bias=False)
  (i_proj_v): Linear(in_features=64, out_features=64, bias=False)
  (i_proj_t): Linear(in_features=64, out_features=64, bias=False)
  (i_proj_s): Linear(in_features=64, out_features=64, bias=False)
)
Trainable parameters: 321566400
Fri 20 Feb 2026 19:07:33 INFO epoch 0 training [time: 126.52s, train loss: 145.2498]
Fri 20 Feb 2026 19:07:55 INFO epoch 0 evaluating [time: 10.64s, valid_score: 0.047200]
Fri 20 Feb 2026 19:07:55 INFO valid result: 
recall@10: 0.0312    recall@20: 0.0472    ndcg@10: 0.0171    ndcg@20: 0.0211    
Fri 20 Feb 2026 19:07:55 INFO test result: 
…
