…
The number of users: 98129
Average actions of users: 1.05971731088669
The number of items: 15709
Average actions of items: 6.619708447386849
The number of inters: 103989
The sparsity of the dataset: 99.99325407530151%
Fri 20 Feb 2026 17:20:27 INFO 

=================================


Fri 20 Feb 2026 17:20:27 INFO =========1/27: Parameters:['reg_weight', 'weight_decay', 'decay_weight', 'alpha_item_co', 'clu_lambda', 'cli_lambda', 'gpert_lambda', 'lambda_spec', 'cui_gamma', 'seed']=(0.001, 0.0001, 0.95, 0.2, 0.0001, 1e-05, 0.0001, 0.1, 0.1, 999)=======
Fri 20 Feb 2026 17:20:30 INFO DuGRec(
  (mod_item_proj): Linear(in_features=192, out_features=64, bias=False)
  (id_item_proj): Identity()
  (image_embedding): Embedding(17228, 1024)
  (v_MLP): Linear(in_features=1024, out_features=256, bias=True)
  (v_MLP_1): Linear(in_features=256, out_features=64, bias=False)
  (text_embedding): Embedding(17228, 1024)
  (t_MLP): Linear(in_features=1024, out_features=256, bias=True)
  (t_MLP_1): Linear(in_features=256, out_features=64, bias=False)
  (s_MLP): Linear(in_features=2048, out_features=256, bias=True)
  (s_MLP_1): Linear(in_features=256, out_features=64, bias=False)
  (u_proj_v): Linear(in_features=64, out_features=64, bias=False)
  (u_proj_t): Linear(in_features=64, out_features=64, bias=False)
  (u_proj_s): Linear(in_features=64, out_features=64, bias=False)
  (i_proj_v): Linear(in_features=64, out_features=64, bias=False)
  (i_proj_t): Linear(in_features=64, out_features=64, bias=False)
  (i_proj_s): Linear(in_features=64, out_features=64, bias=False)
)
Trainable parameters: 55259072
Fri 20 Feb 2026 17:20:49 INFO epoch 0 training [time: 18.81s, train loss: 63.0791]
Fri 20 Feb 2026 17:21:02 INFO epoch 0 evaluating [time: 6.17s, valid_score: 0.066300]
Fri 20 Feb 2026 17:21:02 INFO valid result: 
recall@10: 0.0408    recall@20: 0.0663    ndcg@10: 0.0204    ndcg@20: 0.0269    
Fri 20 Feb 2026 17:21:02 INFO test result: 
…
