…
====Testing====
sports
The number of users: 35598
Average actions of users: 1.1244732850160122
The number of items: 13738
Average actions of items: 2.9137429028970736
The number of inters: 40029
The sparsity of the dataset: 99.99181486908563%
Sun 21 Sep 2025 15:37:36 INFO 

=================================


Sun 21 Sep 2025 15:37:36 INFO =========1/1: Parameters:['reg_weight', 'weight_decay', 'decay_weight', 'alpha_item_co', 'clu_lambda', 'cli_lambda', 'gpert_lambda', 'lambda_spec', 'seed']=(0.01, 0.0001, 0.95, 0.2, 1e-05, 0.0001, 0.01, 0.1, 999)=======
Sun 21 Sep 2025 15:37:37 INFO DuGRec(
  (mod_item_proj): Linear(in_features=192, out_features=64, bias=False)
  (id_item_proj): Identity()
  (image_embedding): Embedding(18357, 4096)
  (v_MLP): Linear(in_features=4096, out_features=256, bias=True)
  (v_MLP_1): Linear(in_features=256, out_features=64, bias=False)
  (text_embedding): Embedding(18357, 384)
  (t_MLP): Linear(in_features=384, out_features=256, bias=True)
  (t_MLP_1): Linear(in_features=256, out_features=64, bias=False)
  (s_MLP): Linear(in_features=4480, out_features=256, bias=True)
  (s_MLP_1): Linear(in_features=256, out_features=64, bias=False)
  (u_proj_v): Linear(in_features=64, out_features=64, bias=False)
  (u_proj_t): Linear(in_features=64, out_features=64, bias=False)
  (u_proj_s): Linear(in_features=64, out_features=64, bias=False)
  (i_proj_v): Linear(in_features=64, out_features=64, bias=False)
  (i_proj_t): Linear(in_features=64, out_features=64, bias=False)
  (i_proj_s): Linear(in_features=64, out_features=64, bias=False)
)
Trainable parameters: 91454720
Sun 21 Sep 2025 15:37:43 INFO epoch 0 training [time: 5.81s, train loss: 40.0598]
Sun 21 Sep 2025 15:37:47 INFO epoch 0 evaluating [time: 2.05s, valid_score: 0.064400]
Sun 21 Sep 2025 15:37:47 INFO valid result: 
recall@10: 0.0414    recall@20: 0.0644    ndcg@10: 0.0225    ndcg@20: 0.0283    
Sun 21 Sep 2025 15:37:47 INFO test result: 
…
